…
Error: Model weights directory does not exist: models\sep_model_fc_12hr 
Trying pre trained default models directory: default_models 
Building model for: default_models\sep_model_fc_12hr\model_weights 
Loading weights from: default_models\sep_model_fc_12hr\model_weights 
Model: "model"
_________________________________________________________________
Layer (type)                 Output Shape              Param #   
=================================================================
input_1 (InputLayer)         [(None, 12, 14)]          0         
_________________________________________________________________
dense_1 (Dense)              (None, 12, 100)           1500      
_________________________________________________________________
bidirectional (Bidirectional (None, 12, 800)           1603200   
_________________________________________________________________
bidirectional_1 (Bidirection (None, 12, 200)           720800    
_________________________________________________________________
SEPCustomAttention (SEPAtten (None, 200)               212       
_________________________________________________________________
flatten (Flatten)            (None, 200)               0         
_________________________________________________________________
dense_2 (Dense)              (None, 1)                 201       
_________________________________________________________________
batch_normalization (BatchNo (None, 1)                 4         
=================================================================
Total params: 2,325,917
Trainable params: 2,325,915
Non-trainable params: 2
_________________________________________________________________
Saving result to file: results\SEP_prediction_results_FC_S_12.csv 
Saving the performance metrics to files: results\SEP_performance_metrics_BiLSTM_FC_S_12.csv 
Running classification test type: FC_S  training for h = 24 hour ahead
…
Saving the performance metrics to files: results\SEP_performance_metrics_BiLSTM_FC_S_72.csv 
Using default parameters: classification type is: FC_S  time windows to train: [12, 24, 36, 48, 60, 72]
Starting hour: 12 ending hour: 72


Running classification type: FC_S  training for h = 12 hour ahead
Model: "model"
_________________________________________________________________
Layer (type)                 Output Shape              Param #   
=================================================================
input_1 (InputLayer)         [(None, 10, 15)]          0         
_________________________________________________________________
dense_1 (Dense)              (None, 10, 100)           1600      
_________________________________________________________________
bidirectional (Bidirectional (None, 10, 800)           1603200   
_________________________________________________________________
bidirectional_1 (Bidirection (None, 10, 200)           720800    
_________________________________________________________________
SEPCustomAttention (SEPAtten (None, 200)               210       
_________________________________________________________________
flatten (Flatten)            (None, 200)               0         
_________________________________________________________________
dense_2 (Dense)              (None, 1)                 201       
_________________________________________________________________
batch_normalization (BatchNo (None, 1)                 4         
=================================================================
Total params: 2,326,015
Trainable params: 2,326,013
Non-trainable params: 2
_________________________________________________________________
Epoch 1/5
11/11 - 28s - loss: 4.5724 - accuracy: 0.6655 
1/1 [==============================] - ETA: 0s
1/1 [==============================] - 2s 2s/step
Model: "model_1"
_________________________________________________________________
Layer (type)                 Output Shape              Param #   
=================================================================
input_2 (InputLayer)         [(None, 10, 15)]          0         
_________________________________________________________________
dense_4 (Dense)              (None, 10, 100)           1600      
_________________________________________________________________
bidirectional_2 (Bidirection (None, 10, 800)           1603200   
_________________________________________________________________
bidirectional_3 (Bidirection (None, 10, 200)           720800    
_________________________________________________________________
SEPCustomAttention (SEPAtten (None, 200)               210       
_________________________________________________________________
flatten_1 (Flatten)          (None, 200)               0         
_________________________________________________________________
dense_5 (Dense)              (None, 1)                 201       
_________________________________________________________________
batch_normalization_1 (Batch (None, 1)                 4         
=================================================================
Total params: 2,326,015
Trainable params: 2,326,013
Non-trainable params: 2
_________________________________________________________________
Epoch 2/5
11/11 - 27s - loss: 3.503 - accuracy: 0.6621 
1/1 [==============================] - ETA: 0s
1/1 [==============================] - 3s 3s/step
Model: "model_2"
_________________________________________________________________
Layer (type)                 Output Shape              Param #   
=================================================================
input_3 (InputLayer)         [(None, 10, 15)]          0         
_________________________________________________________________
dense_7 (Dense)              (None, 10, 100)           1600      
_________________________________________________________________
bidirectional_4 (Bidirection (None, 10, 800)           1603200   
_________________________________________________________________
bidirectional_5 (Bidirection (None, 10, 200)           720800    
_________________________________________________________________
SEPCustomAttention (SEPAtten (None, 200)               210       
_________________________________________________________________
flatten_2 (Flatten)          (None, 200)               0         
_________________________________________________________________
dense_8 (Dense)              (None, 1)                 201       
_________________________________________________________________
batch_normalization_2 (Batch (None, 1)                 4         
=================================================================
Total params: 2,326,015
Trainable params: 2,326,013
Non-trainable params: 2
_________________________________________________________________
Epoch 3/5
11/11 - 25s - loss: 4.8828 - accuracy: 0.6723 
1/1 [==============================] - ETA: 0s
1/1 [==============================] - 2s 2s/step
Model: "model_3"
_________________________________________________________________
Layer (type)                 Output Shape              Param #   
=================================================================
input_4 (InputLayer)         [(None, 10, 15)]          0         
_________________________________________________________________
dense_10 (Dense)             (None, 10, 100)           1600      
_________________________________________________________________
bidirectional_6 (Bidirection (None, 10, 800)           1603200   
_________________________________________________________________
bidirectional_7 (Bidirection (None, 10, 200)           720800    
_________________________________________________________________
SEPCustomAttention (SEPAtten (None, 200)               210       
_________________________________________________________________
flatten_3 (Flatten)          (None, 200)               0         
_________________________________________________________________
dense_11 (Dense)             (None, 1)                 201       
_________________________________________________________________
batch_normalization_3 (Batch (None, 1)                 4         
=================================================================
Total params: 2,326,015
Trainable params: 2,326,013
Non-trainable params: 2
_________________________________________________________________
Epoch 4/5
11/11 - 26s - loss: 3.2891 - accuracy: 0.637 
1/1 [==============================] - ETA: 0s
1/1 [==============================] - 1s 1s/step
Model: "model_4"
_________________________________________________________________
Layer (type)                 Output Shape              Param #   
=================================================================
input_5 (InputLayer)         [(None, 10, 15)]          0         
_________________________________________________________________
dense_13 (Dense)             (None, 10, 100)           1600      
_________________________________________________________________
bidirectional_8 (Bidirection (None, 10, 800)           1603200   
_________________________________________________________________
bidirectional_9 (Bidirection (None, 10, 200)           720800    
_________________________________________________________________
SEPCustomAttention (SEPAtten (None, 200)               210       
_________________________________________________________________
flatten_4 (Flatten)          (None, 200)               0         
_________________________________________________________________
dense_14 (Dense)             (None, 1)                 201       
_________________________________________________________________
batch_normalization_4 (Batch (None, 1)                 4         
=================================================================
Total params: 2,326,015
Trainable params: 2,326,013
Non-trainable params: 2
_________________________________________________________________
Epoch 5/5
11/11 - 18s - loss: 4.9278 - accuracy: 0.6902 
1/1 [==============================] - ETA: 0s
1/1 [==============================] - 1s 1s/step


Running classification type: FC_S  training for h = 24 hour ahead
Model: "model_5"
_________________________________________________________________
Layer (type)                 Output Shape              Param #   
=================================================================
input_6 (InputLayer)         [(None, 10, 15)]          0         
_________________________________________________________________
dense_16 (Dense)             (None, 10, 100)           1600      
_________________________________________________________________
bidirectional_10 (Bidirectio (None, 10, 800)           1603200   
_________________________________________________________________
bidirectional_11 (Bidirectio (None, 10, 200)           720800    
_________________________________________________________________
SEPCustomAttention (SEPAtten (None, 200)               210       
_________________________________________________________________
flatten_5 (Flatten)          (None, 200)               0         
_________________________________________________________________
dense_17 (Dense)             (None, 1)                 201       
_________________________________________________________________
batch_normalization_5 (Batch (None, 1)                 4         
=================================================================
Total params: 2,326,015
Trainable params: 2,326,013
Non-trainable params: 2
_________________________________________________________________
Epoch 1/5
11/11 - 31s - loss: 3.4276 - accuracy: 0.6734 
1/1 [==============================] - ETA: 0s
1/1 [==============================] - 2s 2s/step
Model: "model_6"
_________________________________________________________________
Layer (type)                 Output Shape              Param #   
=================================================================
input_7 (InputLayer)         [(None, 10, 15)]          0         
_________________________________________________________________
dense_19 (Dense)             (None, 10, 100)           1600      
_________________________________________________________________
bidirectional_12 (Bidirectio (None, 10, 800)           1603200   
_________________________________________________________________
bidirectional_13 (Bidirectio (None, 10, 200)           720800    
_________________________________________________________________
SEPCustomAttention (SEPAtten (None, 200)               210       
_________________________________________________________________
flatten_6 (Flatten)          (None, 200)               0         
_________________________________________________________________
dense_20 (Dense)             (None, 1)                 201       
_________________________________________________________________
batch_normalization_6 (Batch (None, 1)                 4         
=================================================================
Total params: 2,326,015
Trainable params: 2,326,013
Non-trainable params: 2
_________________________________________________________________
Epoch 2/5
11/11 - 55s - loss: 2.7827 - accuracy: 0.625 
1/1 [==============================] - ETA: 0s
1/1 [==============================] - 3s 3s/step
Model: "model_7"
_________________________________________________________________
Layer (type)                 Output Shape              Param #   
=================================================================
input_8 (InputLayer)         [(None, 10, 15)]          0         
_________________________________________________________________
dense_22 (Dense)             (None, 10, 100)           1600      
_________________________________________________________________
bidirectional_14 (Bidirectio (None, 10, 800)           1603200   
_________________________________________________________________
bidirectional_15 (Bidirectio (None, 10, 200)           720800    
_________________________________________________________________
SEPCustomAttention (SEPAtten (None, 200)               210       
_________________________________________________________________
flatten_7 (Flatten)          (None, 200)               0         
_________________________________________________________________
dense_23 (Dense)             (None, 1)                 201       
_________________________________________________________________
batch_normalization_7 (Batch (None, 1)                 4         
=================================================================
Total params: 2,326,015
Trainable params: 2,326,013
Non-trainable params: 2
_________________________________________________________________
Epoch 3/5
11/11 - 52s - loss: 4.8888 - accuracy: 0.6737 
1/1 [==============================] - ETA: 0s
1/1 [==============================] - 3s 3s/step
Model: "model_8"
_________________________________________________________________
Layer (type)                 Output Shape              Param #   
=================================================================
input_9 (InputLayer)         [(None, 10, 15)]          0         
_________________________________________________________________
dense_25 (Dense)             (None, 10, 100)           1600      
_________________________________________________________________
bidirectional_16 (Bidirectio (None, 10, 800)           1603200   
_________________________________________________________________
bidirectional_17 (Bidirectio (None, 10, 200)           720800    
_________________________________________________________________
SEPCustomAttention (SEPAtten (None, 200)               210       
_________________________________________________________________
flatten_8 (Flatten)          (None, 200)               0         
_________________________________________________________________
dense_26 (Dense)             (None, 1)                 201       
_________________________________________________________________
batch_normalization_8 (Batch (None, 1)                 4         
=================================================================
Total params: 2,326,015
Trainable params: 2,326,013
Non-trainable params: 2
_________________________________________________________________
Epoch 4/5
11/11 - 55s - loss: 3.3785 - accuracy: 0.634 
1/1 [==============================] - ETA: 0s
1/1 [==============================] - 2s 2s/step
Model: "model_9"
_________________________________________________________________
Layer (type)                 Output Shape              Param #   
=================================================================
input_10 (InputLayer)        [(None, 10, 15)]          0         
_________________________________________________________________
dense_28 (Dense)             (None, 10, 100)           1600      
_________________________________________________________________
bidirectional_18 (Bidirectio (None, 10, 800)           1603200   
_________________________________________________________________
bidirectional_19 (Bidirectio (None, 10, 200)           720800    
_________________________________________________________________
SEPCustomAttention (SEPAtten (None, 200)               210       
_________________________________________________________________
flatten_9 (Flatten)          (None, 200)               0         
_________________________________________________________________
dense_29 (Dense)             (None, 1)                 201       
_________________________________________________________________
batch_normalization_9 (Batch (None, 1)                 4         
=================================================================
Total params: 2,326,015
Trainable params: 2,326,013
Non-trainable params: 2
_________________________________________________________________
Epoch 5/5
11/11 - 55s - loss: 2.6441 - accuracy: 0.6867 
1/1 [==============================] - ETA: 0s
1/1 [==============================] - 1s 1s/step


Running classification type: FC_S  training for h = 36 hour ahead
Model: "model_10"
_________________________________________________________________
Layer (type)                 Output Shape              Param #   
=================================================================
input_11 (InputLayer)        [(None, 10, 15)]          0         
_________________________________________________________________
dense_31 (Dense)             (None, 10, 100)           1600      
_________________________________________________________________
bidirectional_20 (Bidirectio (None, 10, 800)           1603200   
_________________________________________________________________
bidirectional_21 (Bidirectio (None, 10, 200)           720800    
_________________________________________________________________
SEPCustomAttention (SEPAtten (None, 200)               210       
_________________________________________________________________
flatten_10 (Flatten)         (None, 200)               0         
_________________________________________________________________
dense_32 (Dense)             (None, 1)                 201       
_________________________________________________________________
batch_normalization_10 (Batc (None, 1)                 4         
=================================================================
Total params: 2,326,015
Trainable params: 2,326,013
Non-trainable params: 2
_________________________________________________________________
Epoch 1/5
11/11 - 63s - loss: 5.4661 - accuracy: 0.6676 
1/1 [==============================] - ETA: 0s
1/1 [==============================] - 1s 1s/step
Model: "model_11"
_________________________________________________________________
Layer (type)                 Output Shape              Param #   
=================================================================
input_12 (InputLayer)        [(None, 10, 15)]          0         
_________________________________________________________________
dense_34 (Dense)             (None, 10, 100)           1600      
_________________________________________________________________
bidirectional_22 (Bidirectio (None, 10, 800)           1603200   
_________________________________________________________________
bidirectional_23 (Bidirectio (None, 10, 200)           720800    
_________________________________________________________________
SEPCustomAttention (SEPAtten (None, 200)               210       
_________________________________________________________________
flatten_11 (Flatten)         (None, 200)               0         
_________________________________________________________________
dense_35 (Dense)             (None, 1)                 201       
_________________________________________________________________
batch_normalization_11 (Batc (None, 1)                 4         
=================================================================
Total params: 2,326,015
Trainable params: 2,326,013
Non-trainable params: 2
_________________________________________________________________
Epoch 2/5
11/11 - 70s - loss: 2.4985 - accuracy: 0.6645 
1/1 [==============================] - ETA: 0s
1/1 [==============================] - 2s 2s/step
Model: "model_12"
_________________________________________________________________
Layer (type)                 Output Shape              Param #   
=================================================================
input_13 (InputLayer)        [(None, 10, 15)]          0         
_________________________________________________________________
dense_37 (Dense)             (None, 10, 100)           1600      
_________________________________________________________________
bidirectional_24 (Bidirectio (None, 10, 800)           1603200   
_________________________________________________________________
bidirectional_25 (Bidirectio (None, 10, 200)           720800    
_________________________________________________________________
SEPCustomAttention (SEPAtten (None, 200)               210       
_________________________________________________________________
flatten_12 (Flatten)         (None, 200)               0         
_________________________________________________________________
dense_38 (Dense)             (None, 1)                 201       
_________________________________________________________________
batch_normalization_12 (Batc (None, 1)                 4         
=================================================================
Total params: 2,326,015
Trainable params: 2,326,013
Non-trainable params: 2
_________________________________________________________________
Epoch 3/5
11/11 - 61s - loss: 2.2575 - accuracy: 0.7351 
1/1 [==============================] - ETA: 0s
1/1 [==============================] - 1s 1s/step
Model: "model_13"
_________________________________________________________________
Layer (type)                 Output Shape              Param #   
=================================================================
input_14 (InputLayer)        [(None, 10, 15)]          0         
_________________________________________________________________
dense_40 (Dense)             (None, 10, 100)           1600      
_________________________________________________________________
bidirectional_26 (Bidirectio (None, 10, 800)           1603200   
_________________________________________________________________
bidirectional_27 (Bidirectio (None, 10, 200)           720800    
_________________________________________________________________
SEPCustomAttention (SEPAtten (None, 200)               210       
_________________________________________________________________
flatten_13 (Flatten)         (None, 200)               0         
_________________________________________________________________
dense_41 (Dense)             (None, 1)                 201       
_________________________________________________________________
batch_normalization_13 (Batc (None, 1)                 4         
=================================================================
Total params: 2,326,015
Trainable params: 2,326,013
Non-trainable params: 2
_________________________________________________________________
Epoch 4/5
11/11 - 64s - loss: 4.2621 - accuracy: 0.6446 
1/1 [==============================] - ETA: 0s
1/1 [==============================] - 2s 2s/step
Model: "model_14"
_________________________________________________________________
Layer (type)                 Output Shape              Param #   
=================================================================
input_15 (InputLayer)        [(None, 10, 15)]          0         
_________________________________________________________________
dense_43 (Dense)             (None, 10, 100)           1600      
_________________________________________________________________
bidirectional_28 (Bidirectio (None, 10, 800)           1603200   
_________________________________________________________________
bidirectional_29 (Bidirectio (None, 10, 200)           720800    
_________________________________________________________________
SEPCustomAttention (SEPAtten (None, 200)               210       
_________________________________________________________________
flatten_14 (Flatten)         (None, 200)               0         
_________________________________________________________________
dense_44 (Dense)             (None, 1)                 201       
_________________________________________________________________
batch_normalization_14 (Batc (None, 1)                 4         
=================================================================
Total params: 2,326,015
Trainable params: 2,326,013
Non-trainable params: 2
_________________________________________________________________
Epoch 5/5
11/11 - 77s - loss: 2.3891 - accuracy: 0.6829 
1/1 [==============================] - ETA: 0s
1/1 [==============================] - 2s 2s/step


Running classification type: FC_S  training for h = 48 hour ahead
Model: "model_15"
_________________________________________________________________
Layer (type)                 Output Shape              Param #   
=================================================================
input_16 (InputLayer)        [(None, 10, 15)]          0         
_________________________________________________________________
dense_46 (Dense)             (None, 10, 100)           1600      
_________________________________________________________________
bidirectional_30 (Bidirectio (None, 10, 800)           1603200   
_________________________________________________________________
bidirectional_31 (Bidirectio (None, 10, 200)           720800    
_________________________________________________________________
SEPCustomAttention (SEPAtten (None, 200)               210       
_________________________________________________________________
flatten_15 (Flatten)         (None, 200)               0         
_________________________________________________________________
dense_47 (Dense)             (None, 1)                 201       
_________________________________________________________________
batch_normalization_15 (Batc (None, 1)                 4         
=================================================================
Total params: 2,326,015
Trainable params: 2,326,013
Non-trainable params: 2
_________________________________________________________________
Epoch 1/5
11/11 - 95s - loss: 2.8726 - accuracy: 0.6162 
1/1 [==============================] - ETA: 0s
1/1 [==============================] - 1s 1s/step
Model: "model_16"
_________________________________________________________________
Layer (type)                 Output Shape              Param #   
=================================================================
input_17 (InputLayer)        [(None, 10, 15)]          0         
_________________________________________________________________
dense_49 (Dense)             (None, 10, 100)           1600      
_________________________________________________________________
bidirectional_32 (Bidirectio (None, 10, 800)           1603200   
_________________________________________________________________
bidirectional_33 (Bidirectio (None, 10, 200)           720800    
_________________________________________________________________
SEPCustomAttention (SEPAtten (None, 200)               210       
_________________________________________________________________
flatten_16 (Flatten)         (None, 200)               0         
_________________________________________________________________
dense_50 (Dense)             (None, 1)                 201       
_________________________________________________________________
batch_normalization_16 (Batc (None, 1)                 4         
=================================================================
Total params: 2,326,015
Trainable params: 2,326,013
Non-trainable params: 2
_________________________________________________________________
Epoch 2/5
11/11 - 67s - loss: 2.6708 - accuracy: 0.6503 
1/1 [==============================] - ETA: 0s
1/1 [==============================] - 1s 1s/step
Model: "model_17"
_________________________________________________________________
Layer (type)                 Output Shape              Param #   
=================================================================
input_18 (InputLayer)        [(None, 10, 15)]          0         
_________________________________________________________________
dense_52 (Dense)             (None, 10, 100)           1600      
_________________________________________________________________
bidirectional_34 (Bidirectio (None, 10, 800)           1603200   
_________________________________________________________________
bidirectional_35 (Bidirectio (None, 10, 200)           720800    
_________________________________________________________________
SEPCustomAttention (SEPAtten (None, 200)               210       
_________________________________________________________________
flatten_17 (Flatten)         (None, 200)               0         
_________________________________________________________________
dense_53 (Dense)             (None, 1)                 201       
_________________________________________________________________
batch_normalization_17 (Batc (None, 1)                 4         
=================================================================
Total params: 2,326,015
Trainable params: 2,326,013
Non-trainable params: 2
_________________________________________________________________
Epoch 3/5
11/11 - 82s - loss: 2.2764 - accuracy: 0.7241 
1/1 [==============================] - ETA: 0s
1/1 [==============================] - 1s 1s/step
Model: "model_18"
_________________________________________________________________
Layer (type)                 Output Shape              Param #   
=================================================================
input_19 (InputLayer)        [(None, 10, 15)]          0         
_________________________________________________________________
dense_55 (Dense)             (None, 10, 100)           1600      
_________________________________________________________________
bidirectional_36 (Bidirectio (None, 10, 800)           1603200   
_________________________________________________________________
bidirectional_37 (Bidirectio (None, 10, 200)           720800    
_________________________________________________________________
SEPCustomAttention (SEPAtten (None, 200)               210       
_________________________________________________________________
flatten_18 (Flatten)         (None, 200)               0         
_________________________________________________________________
dense_56 (Dense)             (None, 1)                 201       
_________________________________________________________________
batch_normalization_18 (Batc (None, 1)                 4         
=================================================================
Total params: 2,326,015
Trainable params: 2,326,013
Non-trainable params: 2
_________________________________________________________________
Epoch 4/5
11/11 - 87s - loss: 2.7102 - accuracy: 0.658 
1/1 [==============================] - ETA: 0s
1/1 [==============================] - 2s 2s/step
Model: "model_19"
_________________________________________________________________
Layer (type)                 Output Shape              Param #   
=================================================================
input_20 (InputLayer)        [(None, 10, 15)]          0         
_________________________________________________________________
dense_58 (Dense)             (None, 10, 100)           1600      
_________________________________________________________________
bidirectional_38 (Bidirectio (None, 10, 800)           1603200   
_________________________________________________________________
bidirectional_39 (Bidirectio (None, 10, 200)           720800    
_________________________________________________________________
SEPCustomAttention (SEPAtten (None, 200)               210       
_________________________________________________________________
flatten_19 (Flatten)         (None, 200)               0         
_________________________________________________________________
dense_59 (Dense)             (None, 1)                 201       
_________________________________________________________________
batch_normalization_19 (Batc (None, 1)                 4         
=================================================================
Total params: 2,326,015
Trainable params: 2,326,013
Non-trainable params: 2
_________________________________________________________________
Epoch 5/5
11/11 - 94s - loss: 4.6956 - accuracy: 0.6571 
1/1 [==============================] - ETA: 0s
1/1 [==============================] - 1s 1s/step


Running classification type: FC_S  training for h = 60 hour ahead
Model: "model_20"
_________________________________________________________________
Layer (type)                 Output Shape              Param #   
=================================================================
input_21 (InputLayer)        [(None, 10, 15)]          0         
_________________________________________________________________
dense_61 (Dense)             (None, 10, 100)           1600      
_________________________________________________________________
bidirectional_40 (Bidirectio (None, 10, 800)           1603200   
_________________________________________________________________
bidirectional_41 (Bidirectio (None, 10, 200)           720800    
_________________________________________________________________
SEPCustomAttention (SEPAtten (None, 200)               210       
_________________________________________________________________
flatten_20 (Flatten)         (None, 200)               0         
_________________________________________________________________
dense_62 (Dense)             (None, 1)                 201       
_________________________________________________________________
batch_normalization_20 (Batc (None, 1)                 4         
=================================================================
Total params: 2,326,015
Trainable params: 2,326,013
Non-trainable params: 2
_________________________________________________________________
Epoch 1/5
11/11 - 105s - loss: 3.2267 - accuracy: 0.6154 
1/1 [==============================] - ETA: 0s
1/1 [==============================] - 2s 2s/step
Model: "model_21"
_________________________________________________________________
Layer (type)                 Output Shape              Param #   
=================================================================
input_22 (InputLayer)        [(None, 10, 15)]          0         
_________________________________________________________________
dense_64 (Dense)             (None, 10, 100)           1600      
_________________________________________________________________
bidirectional_42 (Bidirectio (None, 10, 800)           1603200   
_________________________________________________________________
bidirectional_43 (Bidirectio (None, 10, 200)           720800    
_________________________________________________________________
SEPCustomAttention (SEPAtten (None, 200)               210       
_________________________________________________________________
flatten_21 (Flatten)         (None, 200)               0         
_________________________________________________________________
dense_65 (Dense)             (None, 1)                 201       
_________________________________________________________________
batch_normalization_21 (Batc (None, 1)                 4         
=================================================================
Total params: 2,326,015
Trainable params: 2,326,013
Non-trainable params: 2
_________________________________________________________________
Epoch 2/5
11/11 - 93s - loss: 2.2374 - accuracy: 0.713 
1/1 [==============================] - ETA: 0s
1/1 [==============================] - 2s 2s/step
Model: "model_22"
_________________________________________________________________
Layer (type)                 Output Shape              Param #   
=================================================================
input_23 (InputLayer)        [(None, 10, 15)]          0         
_________________________________________________________________
dense_67 (Dense)             (None, 10, 100)           1600      
_________________________________________________________________
bidirectional_44 (Bidirectio (None, 10, 800)           1603200   
_________________________________________________________________
bidirectional_45 (Bidirectio (None, 10, 200)           720800    
_________________________________________________________________
SEPCustomAttention (SEPAtten (None, 200)               210       
_________________________________________________________________
flatten_22 (Flatten)         (None, 200)               0         
_________________________________________________________________
dense_68 (Dense)             (None, 1)                 201       
_________________________________________________________________
batch_normalization_22 (Batc (None, 1)                 4         
=================================================================
Total params: 2,326,015
Trainable params: 2,326,013
Non-trainable params: 2
_________________________________________________________________
Epoch 3/5
11/11 - 96s - loss: 4.2434 - accuracy: 0.653 
1/1 [==============================] - ETA: 0s
1/1 [==============================] - 1s 1s/step
Model: "model_23"
_________________________________________________________________
Layer (type)                 Output Shape              Param #   
=================================================================
input_24 (InputLayer)        [(None, 10, 15)]          0         
_________________________________________________________________
dense_70 (Dense)             (None, 10, 100)           1600      
_________________________________________________________________
bidirectional_46 (Bidirectio (None, 10, 800)           1603200   
_________________________________________________________________
bidirectional_47 (Bidirectio (None, 10, 200)           720800    
_________________________________________________________________
SEPCustomAttention (SEPAtten (None, 200)               210       
_________________________________________________________________
flatten_23 (Flatten)         (None, 200)               0         
_________________________________________________________________
dense_71 (Dense)             (None, 1)                 201       
_________________________________________________________________
batch_normalization_23 (Batc (None, 1)                 4         
=================================================================
Total params: 2,326,015
Trainable params: 2,326,013
Non-trainable params: 2
_________________________________________________________________
Epoch 4/5
11/11 - 95s - loss: 2.3315 - accuracy: 0.7068 
1/1 [==============================] - ETA: 0s
1/1 [==============================] - 2s 2s/step
Model: "model_24"
_________________________________________________________________
Layer (type)                 Output Shape              Param #   
=================================================================
input_25 (InputLayer)        [(None, 10, 15)]          0         
_________________________________________________________________
dense_73 (Dense)             (None, 10, 100)           1600      
_________________________________________________________________
bidirectional_48 (Bidirectio (None, 10, 800)           1603200   
_________________________________________________________________
bidirectional_49 (Bidirectio (None, 10, 200)           720800    
_________________________________________________________________
SEPCustomAttention (SEPAtten (None, 200)               210       
_________________________________________________________________
flatten_24 (Flatten)         (None, 200)               0         
_________________________________________________________________
dense_74 (Dense)             (None, 1)                 201       
_________________________________________________________________
batch_normalization_24 (Batc (None, 1)                 4         
=================================================================
Total params: 2,326,015
Trainable params: 2,326,013
Non-trainable params: 2
_________________________________________________________________
Epoch 5/5
11/11 - 100s - loss: 2.3374 - accuracy: 0.7018 
1/1 [==============================] - ETA: 0s
1/1 [==============================] - 1s 1s/step


Running classification type: FC_S  training for h = 72 hour ahead
Model: "model_25"
_________________________________________________________________
Layer (type)                 Output Shape              Param #   
=================================================================
input_26 (InputLayer)        [(None, 10, 15)]          0         
_________________________________________________________________
dense_76 (Dense)             (None, 10, 100)           1600      
_________________________________________________________________
bidirectional_50 (Bidirectio (None, 10, 800)           1603200   
_________________________________________________________________
bidirectional_51 (Bidirectio (None, 10, 200)           720800    
_________________________________________________________________
SEPCustomAttention (SEPAtten (None, 200)               210       
_________________________________________________________________
flatten_25 (Flatten)         (None, 200)               0         
_________________________________________________________________
dense_77 (Dense)             (None, 1)                 201       
_________________________________________________________________
batch_normalization_25 (Batc (None, 1)                 4         
=================================================================
Total params: 2,326,015
Trainable params: 2,326,013
Non-trainable params: 2
_________________________________________________________________
Epoch 1/5
11/11 - 99s - loss: 2.3198 - accuracy: 0.6999 
1/1 [==============================] - ETA: 0s
1/1 [==============================] - 1s 1s/step
Model: "model_26"
_________________________________________________________________
Layer (type)                 Output Shape              Param #   
=================================================================
input_27 (InputLayer)        [(None, 10, 15)]          0         
_________________________________________________________________
dense_79 (Dense)             (None, 10, 100)           1600      
_________________________________________________________________
bidirectional_52 (Bidirectio (None, 10, 800)           1603200   
_________________________________________________________________
bidirectional_53 (Bidirectio (None, 10, 200)           720800    
_________________________________________________________________
SEPCustomAttention (SEPAtten (None, 200)               210       
_________________________________________________________________
flatten_26 (Flatten)         (None, 200)               0         
_________________________________________________________________
dense_80 (Dense)             (None, 1)                 201       
_________________________________________________________________
batch_normalization_26 (Batc (None, 1)                 4         
=================================================================
Total params: 2,326,015
Trainable params: 2,326,013
Non-trainable params: 2
_________________________________________________________________
Epoch 2/5
11/11 - 88s - loss: 2.4637 - accuracy: 0.6923 
1/1 [==============================] - ETA: 0s
1/1 [==============================] - 1s 1s/step
Model: "model_27"
_________________________________________________________________
Layer (type)                 Output Shape              Param #   
=================================================================
input_28 (InputLayer)        [(None, 10, 15)]          0         
_________________________________________________________________
dense_82 (Dense)             (None, 10, 100)           1600      
_________________________________________________________________
bidirectional_54 (Bidirectio (None, 10, 800)           1603200   
_________________________________________________________________
bidirectional_55 (Bidirectio (None, 10, 200)           720800    
_________________________________________________________________
SEPCustomAttention (SEPAtten (None, 200)               210       
_________________________________________________________________
flatten_27 (Flatten)         (None, 200)               0         
_________________________________________________________________
dense_83 (Dense)             (None, 1)                 201       
_________________________________________________________________
batch_normalization_27 (Batc (None, 1)                 4         
=================================================================
Total params: 2,326,015
Trainable params: 2,326,013
Non-trainable params: 2
_________________________________________________________________
Epoch 3/5
11/11 - 95s - loss: 2.2946 - accuracy: 0.6997 
1/1 [==============================] - ETA: 0s
1/1 [==============================] - 2s 2s/step
Model: "model_28"
_________________________________________________________________
Layer (type)                 Output Shape              Param #   
=================================================================
input_29 (InputLayer)        [(None, 10, 15)]          0         
_________________________________________________________________
dense_85 (Dense)             (None, 10, 100)           1600      
_________________________________________________________________
bidirectional_56 (Bidirectio (None, 10, 800)           1603200   
_________________________________________________________________
bidirectional_57 (Bidirectio (None, 10, 200)           720800    
_________________________________________________________________
SEPCustomAttention (SEPAtten (None, 200)               210       
_________________________________________________________________
flatten_28 (Flatten)         (None, 200)               0         
_________________________________________________________________
dense_86 (Dense)             (None, 1)                 201       
_________________________________________________________________
batch_normalization_28 (Batc (None, 1)                 4         
=================================================================
Total params: 2,326,015
Trainable params: 2,326,013
Non-trainable params: 2
_________________________________________________________________
Epoch 4/5
11/11 - 118s - loss: 2.2294 - accuracy: 0.6999 
1/1 [==============================] - ETA: 0s
1/1 [==============================] - 2s 2s/step
Model: "model_29"
_________________________________________________________________
Layer (type)                 Output Shape              Param #   
=================================================================
input_30 (InputLayer)        [(None, 10, 15)]          0         
_________________________________________________________________
dense_88 (Dense)             (None, 10, 100)           1600      
_________________________________________________________________
bidirectional_58 (Bidirectio (None, 10, 800)           1603200   
_________________________________________________________________
bidirectional_59 (Bidirectio (None, 10, 200)           720800    
_________________________________________________________________
SEPCustomAttention (SEPAtten (None, 200)               210       
_________________________________________________________________
flatten_29 (Flatten)         (None, 200)               0         
_________________________________________________________________
dense_89 (Dense)             (None, 1)                 201       
_________________________________________________________________
batch_normalization_29 (Batc (None, 1)                 4         
=================================================================
Total params: 2,326,015
Trainable params: 2,326,013
Non-trainable params: 2
_________________________________________________________________
Epoch 5/5
11/11 - 124s - loss: 6.1765 - accuracy: 0.6762 
1/1 [==============================] - ETA: 0s
1/1 [==============================] - 3s 3s/step
