…
Running classification test type: FC_S  training for h = 12 hour ahead
[2022-06-21 09:03:24] Building model for: models\sep_model_fc_12hr\model_weights 
[2022-06-21 09:03:25] Loading weights from: models\sep_model_fc_12hr\model_weights 
Model: "model"
_________________________________________________________________
 Layer (type)                Output Shape              Param #   
=================================================================
 input_1 (InputLayer)        [(None, 10, 15)]          0         
                                                                 
 dense_1 (Dense)             (None, 10, 100)           1600      
                                                                 
 bidirectional (Bidirectiona  (None, 10, 800)          1603200   
 l)                                                              
                                                                 
 bidirectional_1 (Bidirectio  (None, 10, 200)          720800    
 nal)                                                            
                                                                 
 SEPCustomAttention (SEPAtte  (None, 200)              210       
 ntion)                                                          
                                                                 
 flatten (Flatten)           (None, 200)               0         
                                                                 
 dense_2 (Dense)             (None, 1)                 201       
                                                                 
 batch_normalization (BatchN  (None, 1)                4         
 ormalization)                                                   
                                                                 
=================================================================
Total params: 2,326,015
Trainable params: 2,326,013
Non-trainable params: 2
_________________________________________________________________
[2022-06-21 09:03:43] Saving result to file: results\SEP_prediction_results_FC_S_12.csv 
…
Trying pre trained default models directory: default_models 
[2022-06-21 09:04:03] Building model for: default_models\sep_model_f_12hr\model_weights 
[2022-06-21 09:04:04] Loading weights from: default_models\sep_model_f_12hr\model_weights 
Model: "model"
_________________________________________________________________
 Layer (type)                Output Shape              Param #   
=================================================================
 input_1 (InputLayer)        [(None, 12, 14)]          0         
                                                                 
 dense_1 (Dense)             (None, 12, 100)           1500      
                                                                 
 bidirectional (Bidirectiona  (None, 12, 800)          1603200   
 l)                                                              
                                                                 
 bidirectional_1 (Bidirectio  (None, 12, 200)          720800    
 nal)                                                            
                                                                 
 SEPCustomAttention (SEPAtte  (None, 200)              212       
 ntion)                                                          
                                                                 
 flatten (Flatten)           (None, 200)               0         
                                                                 
 dense_2 (Dense)             (None, 1)                 201       
                                                                 
 batch_normalization (BatchN  (None, 1)                4         
 ormalization)                                                   
                                                                 
=================================================================
Total params: 2,325,917
Trainable params: 2,325,915
Non-trainable params: 2
_________________________________________________________________
[2022-06-21 09:04:07] Saving result to file: results\SEP_prediction_results_F_S_12.csv 
…
[2022-06-21 09:05:46] ********************************  Executing Python program: SEP_train.py   ******************************** 
Using default parameters: classification type is: FC_S  time windows to train: [12, 24, 36, 48, 60, 72]
Starting hour: 12 ending hour: 72


Running classification type: FC_S  training for h = 12 hour ahead
Model: "model"
_________________________________________________________________
 Layer (type)                Output Shape              Param #   
=================================================================
 input_1 (InputLayer)        [(None, 10, 15)]          0         
                                                                 
 dense_1 (Dense)             (None, 10, 100)           1600      
                                                                 
 bidirectional (Bidirectiona  (None, 10, 800)          1603200   
 l)                                                              
                                                                 
 bidirectional_1 (Bidirectio  (None, 10, 200)          720800    
 nal)                                                            
                                                                 
 SEPCustomAttention (SEPAtte  (None, 200)              210       
 ntion)                                                          
                                                                 
 flatten (Flatten)           (None, 200)               0         
                                                                 
 dense_2 (Dense)             (None, 1)                 201       
                                                                 
 batch_normalization (BatchN  (None, 1)                4         
 ormalization)                                                   
                                                                 
=================================================================
Total params: 2,326,015
Trainable params: 2,326,013
Non-trainable params: 2
_________________________________________________________________
Epoch 1/5
11/11 - 16s - loss: 3.0232 - accuracy: 0.6539 
1/1 [==============================] - ETA: 0s
1/1 [==============================] - 1s 701ms/step
Model: "model_1"
_________________________________________________________________
 Layer (type)                Output Shape              Param #   
=================================================================
 input_2 (InputLayer)        [(None, 10, 15)]          0         
                                                                 
 dense_4 (Dense)             (None, 10, 100)           1600      
                                                                 
 bidirectional_2 (Bidirectio  (None, 10, 800)          1603200   
 nal)                                                            
                                                                 
 bidirectional_3 (Bidirectio  (None, 10, 200)          720800    
 nal)                                                            
                                                                 
 SEPCustomAttention (SEPAtte  (None, 200)              210       
 ntion)                                                          
                                                                 
 flatten_1 (Flatten)         (None, 200)               0         
                                                                 
 dense_5 (Dense)             (None, 1)                 201       
                                                                 
 batch_normalization_1 (Batc  (None, 1)                4         
 hNormalization)                                                 
                                                                 
=================================================================
Total params: 2,326,015
Trainable params: 2,326,013
Non-trainable params: 2
_________________________________________________________________
Epoch 2/5
11/11 - 5s - loss: 2.8059 - accuracy: 0.6313 
1/1 [==============================] - ETA: 0s
1/1 [==============================] - 1s 676ms/step
Model: "model_2"
_________________________________________________________________
 Layer (type)                Output Shape              Param #   
=================================================================
 input_3 (InputLayer)        [(None, 10, 15)]          0         
                                                                 
 dense_7 (Dense)             (None, 10, 100)           1600      
                                                                 
 bidirectional_4 (Bidirectio  (None, 10, 800)          1603200   
 nal)                                                            
                                                                 
 bidirectional_5 (Bidirectio  (None, 10, 200)          720800    
 nal)                                                            
                                                                 
 SEPCustomAttention (SEPAtte  (None, 200)              210       
 ntion)                                                          
                                                                 
 flatten_2 (Flatten)         (None, 200)               0         
                                                                 
 dense_8 (Dense)             (None, 1)                 201       
                                                                 
 batch_normalization_2 (Batc  (None, 1)                4         
 hNormalization)                                                 
                                                                 
=================================================================
Total params: 2,326,015
Trainable params: 2,326,013
Non-trainable params: 2
_________________________________________________________________
Epoch 3/5
11/11 - 5s - loss: 2.518 - accuracy: 0.7023 
1/1 [==============================] - ETA: 0s
1/1 [==============================] - 1s 671ms/step
Model: "model_3"
_________________________________________________________________
 Layer (type)                Output Shape              Param #   
=================================================================
 input_4 (InputLayer)        [(None, 10, 15)]          0         
                                                                 
 dense_10 (Dense)            (None, 10, 100)           1600      
                                                                 
 bidirectional_6 (Bidirectio  (None, 10, 800)          1603200   
 nal)                                                            
                                                                 
 bidirectional_7 (Bidirectio  (None, 10, 200)          720800    
 nal)                                                            
                                                                 
 SEPCustomAttention (SEPAtte  (None, 200)              210       
 ntion)                                                          
                                                                 
 flatten_3 (Flatten)         (None, 200)               0         
                                                                 
 dense_11 (Dense)            (None, 1)                 201       
                                                                 
 batch_normalization_3 (Batc  (None, 1)                4         
 hNormalization)                                                 
                                                                 
=================================================================
Total params: 2,326,015
Trainable params: 2,326,013
Non-trainable params: 2
_________________________________________________________________
Epoch 4/5
11/11 - 5s - loss: 2.639 - accuracy: 0.6817 
1/1 [==============================] - ETA: 0s
1/1 [==============================] - 1s 668ms/step
Model: "model_4"
_________________________________________________________________
 Layer (type)                Output Shape              Param #   
=================================================================
 input_5 (InputLayer)        [(None, 10, 15)]          0         
                                                                 
 dense_13 (Dense)            (None, 10, 100)           1600      
                                                                 
 bidirectional_8 (Bidirectio  (None, 10, 800)          1603200   
 nal)                                                            
                                                                 
 bidirectional_9 (Bidirectio  (None, 10, 200)          720800    
 nal)                                                            
                                                                 
 SEPCustomAttention (SEPAtte  (None, 200)              210       
 ntion)                                                          
                                                                 
 flatten_4 (Flatten)         (None, 200)               0         
                                                                 
 dense_14 (Dense)            (None, 1)                 201       
                                                                 
 batch_normalization_4 (Batc  (None, 1)                4         
 hNormalization)                                                 
                                                                 
=================================================================
Total params: 2,326,015
Trainable params: 2,326,013
Non-trainable params: 2
_________________________________________________________________
Epoch 5/5
11/11 - 5s - loss: 5.0105 - accuracy: 0.6655 
…
[2022-06-21 09:06:06] ********************************  Executing Python program: SEP_train.py   ******************************** 
Starting hour: 12 ending hour: 72


Running classification type: F_S  training for h = 12 hour ahead
Model: "model"
_________________________________________________________________
 Layer (type)                Output Shape              Param #   
=================================================================
 input_1 (InputLayer)        [(None, 10, 15)]          0         
                                                                 
 dense_1 (Dense)             (None, 10, 100)           1600      
                                                                 
 bidirectional (Bidirectiona  (None, 10, 800)          1603200   
 l)                                                              
                                                                 
 bidirectional_1 (Bidirectio  (None, 10, 200)          720800    
 nal)                                                            
                                                                 
 SEPCustomAttention (SEPAtte  (None, 200)              210       
 ntion)                                                          
                                                                 
 flatten (Flatten)           (None, 200)               0         
                                                                 
 dense_2 (Dense)             (None, 1)                 201       
                                                                 
 batch_normalization (BatchN  (None, 1)                4         
 ormalization)                                                   
                                                                 
=================================================================
Total params: 2,326,015
Trainable params: 2,326,013
Non-trainable params: 2
_________________________________________________________________
Epoch 1/5
11/11 - 6s - loss: 2.9663 - accuracy: 0.6869 
1/1 [==============================] - ETA: 0s
1/1 [==============================] - 1s 675ms/step
Model: "model_6"
_________________________________________________________________
 Layer (type)                Output Shape              Param #   
=================================================================
 input_7 (InputLayer)        [(None, 10, 15)]          0         
                                                                 
 dense_19 (Dense)            (None, 10, 100)           1600      
                                                                 
 bidirectional_12 (Bidirecti  (None, 10, 800)          1603200   
 onal)                                                           
                                                                 
 bidirectional_13 (Bidirecti  (None, 10, 200)          720800    
 onal)                                                           
                                                                 
 SEPCustomAttention (SEPAtte  (None, 200)              210       
 ntion)                                                          
                                                                 
 flatten_6 (Flatten)         (None, 200)               0         
                                                                 
 dense_20 (Dense)            (None, 1)                 201       
                                                                 
 batch_normalization_6 (Batc  (None, 1)                4         
 hNormalization)                                                 
                                                                 
=================================================================
Total params: 2,326,015
Trainable params: 2,326,013
Non-trainable params: 2
_________________________________________________________________
Epoch 2/5
11/11 - 5s - loss: 2.788 - accuracy: 0.6265 
1/1 [==============================] - ETA: 0s
1/1 [==============================] - 1s 674ms/step
Model: "model_7"
_________________________________________________________________
 Layer (type)                Output Shape              Param #   
=================================================================
 input_8 (InputLayer)        [(None, 10, 15)]          0         
                                                                 
 dense_22 (Dense)            (None, 10, 100)           1600      
                                                                 
 bidirectional_14 (Bidirecti  (None, 10, 800)          1603200   
 onal)                                                           
                                                                 
 bidirectional_15 (Bidirecti  (None, 10, 200)          720800    
 onal)                                                           
                                                                 
 SEPCustomAttention (SEPAtte  (None, 200)              210       
 ntion)                                                          
                                                                 
 flatten_7 (Flatten)         (None, 200)               0         
                                                                 
 dense_23 (Dense)            (None, 1)                 201       
                                                                 
 batch_normalization_7 (Batc  (None, 1)                4         
 hNormalization)                                                 
                                                                 
=================================================================
Total params: 2,326,015
Trainable params: 2,326,013
Non-trainable params: 2
_________________________________________________________________
Epoch 1/5
11/11 - 14s - loss: 1.6848 - accuracy: 0.9475 
…
_________________________________________________________________
Epoch 2/5
11/11 - 13s - loss: 1.6001 - accuracy: 0.9476 
1/1 [==============================] - ETA: 0s
1/1 [==============================] - 1s 1s/step
Epoch 5/5
11/11 - 5s - loss: 3.2759 - accuracy: 0.6535 Model: "model_2"
_________________________________________________________________
 Layer (type)                Output Shape              Param #   
=================================================================
 input_3 (InputLayer)        [(None, 10, 15)]          0         
                                                                 
 dense_7 (Dense)             (None, 10, 100)           1600      
                                                                 
 bidirectional_4 (Bidirectio  (None, 10, 800)          1603200   
 nal)                                                            
                                                                 
 bidirectional_5 (Bidirectio  (None, 10, 200)          720800    
 nal)                                                            
                                                                 
 SEPCustomAttention (SEPAtte  (None, 200)              210       
 ntion)                                                          
                                                                 
 flatten_2 (Flatten)         (None, 200)               0         
                                                                 
 dense_8 (Dense)             (None, 1)                 201       
                                                                 
 batch_normalization_2 (Batc  (None, 1)                4         
 hNormalization)                                                 
                                                                 
=================================================================
Total params: 2,326,015
Trainable params: 2,326,013
Non-trainable params: 2
_________________________________________________________________

1/1 [==============================] - ETA: 0s
1/1 [==============================] - 1s 853ms/step


Running classification type: FC_S  training for h = 36 hour ahead
Model: "model_10"
_________________________________________________________________
 Layer (type)                Output Shape              Param #   
=================================================================
 input_11 (InputLayer)       [(None, 10, 15)]          0         
                                                                 
 dense_31 (Dense)            (None, 10, 100)           1600      
                                                                 
 bidirectional_20 (Bidirecti  (None, 10, 800)          1603200   
 onal)                                                           
                                                                 
 bidirectional_21 (Bidirecti  (None, 10, 200)          720800    
 onal)                                                           
                                                                 
 SEPCustomAttention (SEPAtte  (None, 200)              210       
 ntion)                                                          
                                                                 
 flatten_10 (Flatten)        (None, 200)               0         
                                                                 
 dense_32 (Dense)            (None, 1)                 201       
                                                                 
 batch_normalization_10 (Bat  (None, 1)                4         
 chNormalization)                                                
                                                                 
=================================================================
Total params: 2,326,015
Trainable params: 2,326,013
Non-trainable params: 2
_________________________________________________________________
Epoch 1/5
11/11 - 6s - loss: 4.4613 - accuracy: 0.6529 
1/1 [==============================] - ETA: 0s
1/1 [==============================] - 1s 670ms/step
Model: "model_11"
_________________________________________________________________
 Layer (type)                Output Shape              Param #   
=================================================================
 input_12 (InputLayer)       [(None, 10, 15)]          0         
                                                                 
 dense_34 (Dense)            (None, 10, 100)           1600      
                                                                 
 bidirectional_22 (Bidirecti  (None, 10, 800)          1603200   
 onal)                                                           
                                                                 
 bidirectional_23 (Bidirecti  (None, 10, 200)          720800    
 onal)                                                           
                                                                 
 SEPCustomAttention (SEPAtte  (None, 200)              210       
 ntion)                                                          
                                                                 
 flatten_11 (Flatten)        (None, 200)               0         
                                                                 
 dense_35 (Dense)            (None, 1)                 201       
                                                                 
 batch_normalization_11 (Bat  (None, 1)                4         
 chNormalization)                                                
                                                                 
=================================================================
Total params: 2,326,015
Trainable params: 2,326,013
Non-trainable params: 2
_________________________________________________________________
Epoch 3/5
11/11 - 14s - loss: 2.5964 - accuracy: 0.8555 
1/1 [==============================] - ETA: 0s
1/1 [==============================] - 1s 1s/step
Model: "model_3"
_________________________________________________________________
 Layer (type)                Output Shape              Param #   
=================================================================
 input_4 (InputLayer)        [(None, 10, 15)]          0         
                                                                 
 dense_10 (Dense)            (None, 10, 100)           1600      
                                                                 
 bidirectional_6 (Bidirectio  (None, 10, 800)          1603200   
 nal)                                                            
                                                                 
 bidirectional_7 (Bidirectio  (None, 10, 200)          720800    
 nal)                                                            
                                                                 
 SEPCustomAttention (SEPAtte  (None, 200)              210       
 ntion)                                                          
                                                                 
 flatten_3 (Flatten)         (None, 200)               0         
                                                                 
 dense_11 (Dense)            (None, 1)                 201       
                                                                 
 batch_normalization_3 (Batc  (None, 1)                4         
 hNormalization)                                                 
                                                                 
=================================================================
Total params: 2,326,015
Trainable params: 2,326,013
Non-trainable params: 2
_________________________________________________________________
Epoch 2/5
11/11 - 6s - loss: 2.4809 - accuracy: 0.6845 
1/1 [==============================] - ETA: 0s
1/1 [==============================] - 1s 673ms/step
Model: "model_12"
_________________________________________________________________
 Layer (type)                Output Shape              Param #   
=================================================================
 input_13 (InputLayer)       [(None, 10, 15)]          0         
                                                                 
 dense_37 (Dense)            (None, 10, 100)           1600      
                                                                 
 bidirectional_24 (Bidirecti  (None, 10, 800)          1603200   
 onal)                                                           
                                                                 
 bidirectional_25 (Bidirecti  (None, 10, 200)          720800    
 onal)                                                           
                                                                 
 SEPCustomAttention (SEPAtte  (None, 200)              210       
 ntion)                                                          
                                                                 
 flatten_12 (Flatten)        (None, 200)               0         
                                                                 
 dense_38 (Dense)            (None, 1)                 201       
                                                                 
 batch_normalization_12 (Bat  (None, 1)                4         
 chNormalization)                                                
                                                                 
=================================================================
Total params: 2,326,015
Trainable params: 2,326,013
Non-trainable params: 2
_________________________________________________________________
Epoch 3/5
11/11 - 6s - loss: 2.4669 - accuracy: 0.6821 
1/1 [==============================] - ETA: 0s
1/1 [==============================] - 1s 675ms/step
Model: "model_13"
_________________________________________________________________
 Layer (type)                Output Shape              Param #   
=================================================================
 input_14 (InputLayer)       [(None, 10, 15)]          0         
                                                                 
 dense_40 (Dense)            (None, 10, 100)           1600      
                                                                 
 bidirectional_26 (Bidirecti  (None, 10, 800)          1603200   
 onal)                                                           
                                                                 
 bidirectional_27 (Bidirecti  (None, 10, 200)          720800    
 onal)                                                           
                                                                 
 SEPCustomAttention (SEPAtte  (None, 200)              210       
 ntion)                                                          
                                                                 
 flatten_13 (Flatten)        (None, 200)               0         
                                                                 
 dense_41 (Dense)            (None, 1)                 201       
                                                                 
 batch_normalization_13 (Bat  (None, 1)                4         
 chNormalization)                                                
                                                                 
=================================================================
Total params: 2,326,015
Trainable params: 2,326,013
Non-trainable params: 2
_________________________________________________________________
Epoch 4/5
11/11 - 14s - loss: 2.6675 - accuracy: 0.8492 
1/1 [==============================] - ETA: 0s
1/1 [==============================] - 1s 1s/step
Model: "model_4"
_________________________________________________________________
 Layer (type)                Output Shape              Param #   
=================================================================
 input_5 (InputLayer)        [(None, 10, 15)]          0         
                                                                 
 dense_13 (Dense)            (None, 10, 100)           1600      
                                                                 
 bidirectional_8 (Bidirectio  (None, 10, 800)          1603200   
 nal)                                                            
                                                                 
 bidirectional_9 (Bidirectio  (None, 10, 200)          720800    
 nal)                                                            
                                                                 
 SEPCustomAttention (SEPAtte  (None, 200)              210       
 ntion)                                                          
                                                                 
 flatten_4 (Flatten)         (None, 200)               0         
                                                                 
 dense_14 (Dense)            (None, 1)                 201       
                                                                 
 batch_normalization_4 (Batc  (None, 1)                4         
 hNormalization)                                                 
                                                                 
=================================================================
Total params: 2,326,015
Trainable params: 2,326,013
Non-trainable params: 2
_________________________________________________________________
Epoch 4/5
11/11 - 6s - loss: 4.79 - accuracy: 0.656 
1/1 [==============================] - ETA: 0s
1/1 [==============================] - 1s 674ms/step
Model: "model_14"
_________________________________________________________________
 Layer (type)                Output Shape              Param #   
=================================================================
 input_15 (InputLayer)       [(None, 10, 15)]          0         
                                                                 
 dense_43 (Dense)            (None, 10, 100)           1600      
                                                                 
 bidirectional_28 (Bidirecti  (None, 10, 800)          1603200   
 onal)                                                           
                                                                 
 bidirectional_29 (Bidirecti  (None, 10, 200)          720800    
 onal)                                                           
                                                                 
 SEPCustomAttention (SEPAtte  (None, 200)              210       
 ntion)                                                          
                                                                 
 flatten_14 (Flatten)        (None, 200)               0         
                                                                 
 dense_44 (Dense)            (None, 1)                 201       
                                                                 
 batch_normalization_14 (Bat  (None, 1)                4         
 chNormalization)                                                
                                                                 
=================================================================
Total params: 2,326,015
Trainable params: 2,326,013
Non-trainable params: 2
_________________________________________________________________
Epoch 5/5
11/11 - 6s - loss: 2.2943 - accuracy: 0.7197 
…


Running classification type: F_S  training for h = 24 hour ahead
Epoch 1/5
11/11 - 6s - loss: 2.2975 - accuracy: 0.7225 
1/1 [==============================] - ETA: 0s
1/1 [==============================] - 1s 672ms/step
Model: "model_16"
_________________________________________________________________
 Layer (type)                Output Shape              Param #   
=================================================================
 input_17 (InputLayer)       [(None, 10, 15)]          0         
                                                                 
 dense_49 (Dense)            (None, 10, 100)           1600      
                                                                 
 bidirectional_32 (Bidirecti  (None, 10, 800)          1603200   
 onal)                                                           
                                                                 
 bidirectional_33 (Bidirecti  (None, 10, 200)          720800    
 onal)                                                           
                                                                 
 SEPCustomAttention (SEPAtte  (None, 200)              210       
 ntion)                                                          
                                                                 
 flatten_16 (Flatten)        (None, 200)               0         
                                                                 
 dense_50 (Dense)            (None, 1)                 201       
                                                                 
 batch_normalization_16 (Bat  (None, 1)                4         
 chNormalization)                                                
                                                                 
=================================================================
Total params: 2,326,015
Trainable params: 2,326,013
Non-trainable params: 2
_________________________________________________________________
Model: "model_5"
_________________________________________________________________
 Layer (type)                Output Shape              Param #   
=================================================================
 input_6 (InputLayer)        [(None, 10, 15)]          0         
                                                                 
 dense_16 (Dense)            (None, 10, 100)           1600      
                                                                 
 bidirectional_10 (Bidirecti  (None, 10, 800)          1603200   
 onal)                                                           
                                                                 
 bidirectional_11 (Bidirecti  (None, 10, 200)          720800    
 onal)                                                           
                                                                 
 SEPCustomAttention (SEPAtte  (None, 200)              210       
 ntion)                                                          
                                                                 
 flatten_5 (Flatten)         (None, 200)               0         
                                                                 
 dense_17 (Dense)            (None, 1)                 201       
                                                                 
 batch_normalization_5 (Batc  (None, 1)                4         
 hNormalization)                                                 
                                                                 
=================================================================
Total params: 2,326,015
Trainable params: 2,326,013
Non-trainable params: 2
_________________________________________________________________
Epoch 2/5
11/11 - 7s - loss: 2.6505 - accuracy: 0.6509 
1/1 [==============================] - ETA: 0s
1/1 [==============================] - 1s 687ms/step
Model: "model_17"
_________________________________________________________________
 Layer (type)                Output Shape              Param #   
=================================================================
 input_18 (InputLayer)       [(None, 10, 15)]          0         
                                                                 
 dense_52 (Dense)            (None, 10, 100)           1600      
                                                                 
 bidirectional_34 (Bidirecti  (None, 10, 800)          1603200   
 onal)                                                           
                                                                 
 bidirectional_35 (Bidirecti  (None, 10, 200)          720800    
 onal)                                                           
                                                                 
 SEPCustomAttention (SEPAtte  (None, 200)              210       
 ntion)                                                          
                                                                 
 flatten_17 (Flatten)        (None, 200)               0         
                                                                 
 dense_53 (Dense)            (None, 1)                 201       
                                                                 
 batch_normalization_17 (Bat  (None, 1)                4         
 chNormalization)                                                
                                                                 
=================================================================
Total params: 2,326,015
Trainable params: 2,326,013
Non-trainable params: 2
_________________________________________________________________
Epoch 3/5
11/11 - 6s - loss: 2.4289 - accuracy: 0.6992 
1/1 [==============================] - ETA: 0s
1/1 [==============================] - 1s 674ms/step
Model: "model_18"
_________________________________________________________________
 Layer (type)                Output Shape              Param #   
=================================================================
 input_19 (InputLayer)       [(None, 10, 15)]          0         
                                                                 
 dense_55 (Dense)            (None, 10, 100)           1600      
                                                                 
 bidirectional_36 (Bidirecti  (None, 10, 800)          1603200   
 onal)                                                           
                                                                 
 bidirectional_37 (Bidirecti  (None, 10, 200)          720800    
 onal)                                                           
                                                                 
 SEPCustomAttention (SEPAtte  (None, 200)              210       
 ntion)                                                          
                                                                 
 flatten_18 (Flatten)        (None, 200)               0         
                                                                 
 dense_56 (Dense)            (None, 1)                 201       
                                                                 
 batch_normalization_18 (Bat  (None, 1)                4         
 chNormalization)                                                
                                                                 
=================================================================
Total params: 2,326,015
Trainable params: 2,326,013
Non-trainable params: 2
_________________________________________________________________
Epoch 1/5
11/11 - 19s - loss: 1.2971 - accuracy: 0.9369 
1/1 [==============================] - ETA: 0s
1/1 [==============================] - 1s 1s/step
Model: "model_6"
_________________________________________________________________
 Layer (type)                Output Shape              Param #   
=================================================================
 input_7 (InputLayer)        [(None, 10, 15)]          0         
                                                                 
 dense_19 (Dense)            (None, 10, 100)           1600      
                                                                 
 bidirectional_12 (Bidirecti  (None, 10, 800)          1603200   
 onal)                                                           
                                                                 
 bidirectional_13 (Bidirecti  (None, 10, 200)          720800    
 onal)                                                           
                                                                 
 SEPCustomAttention (SEPAtte  (None, 200)              210       
 ntion)                                                          
                                                                 
 flatten_6 (Flatten)         (None, 200)               0         
                                                                 
 dense_20 (Dense)            (None, 1)                 201       
                                                                 
 batch_normalization_6 (Batc  (None, 1)                4         
 hNormalization)                                                 
                                                                 
=================================================================
Total params: 2,326,015
Trainable params: 2,326,013
Non-trainable params: 2
_________________________________________________________________
Epoch 4/5
11/11 - 6s - loss: 3.5293 - accuracy: 0.6548 
1/1 [==============================] - ETA: 0s
1/1 [==============================] - 1s 679ms/step
Model: "model_19"
_________________________________________________________________
 Layer (type)                Output Shape              Param #   
=================================================================
 input_20 (InputLayer)       [(None, 10, 15)]          0         
                                                                 
 dense_58 (Dense)            (None, 10, 100)           1600      
                                                                 
 bidirectional_38 (Bidirecti  (None, 10, 800)          1603200   
 onal)                                                           
                                                                 
 bidirectional_39 (Bidirecti  (None, 10, 200)          720800    
 onal)                                                           
                                                                 
 SEPCustomAttention (SEPAtte  (None, 200)              210       
 ntion)                                                          
                                                                 
 flatten_19 (Flatten)        (None, 200)               0         
                                                                 
 dense_59 (Dense)            (None, 1)                 201       
                                                                 
 batch_normalization_19 (Bat  (None, 1)                4         
 chNormalization)                                                
                                                                 
=================================================================
Total params: 2,326,015
Trainable params: 2,326,013
Non-trainable params: 2
_________________________________________________________________
Epoch 5/5
11/11 - 6s - loss: 2.3559 - accuracy: 0.7232 
…
_________________________________________________________________
Epoch 1/5
11/11 - 6s - loss: 2.2836 - accuracy: 0.7131 
1/1 [==============================] - ETA: 0s
1/1 [==============================] - 1s 681ms/step
Epoch 2/5
11/11 - 20s - loss: 1.7197 - accuracy: 0.9369 Model: "model_21"
_________________________________________________________________
 Layer (type)                Output Shape              Param #   
=================================================================
 input_22 (InputLayer)       [(None, 10, 15)]          0         
                                                                 
 dense_64 (Dense)            (None, 10, 100)           1600      
                                                                 
 bidirectional_42 (Bidirecti  (None, 10, 800)          1603200   
 onal)                                                           
                                                                 
 bidirectional_43 (Bidirecti  (None, 10, 200)          720800    
 onal)                                                           
                                                                 
 SEPCustomAttention (SEPAtte  (None, 200)              210       
 ntion)                                                          
                                                                 
 flatten_21 (Flatten)        (None, 200)               0         
                                                                 
 dense_65 (Dense)            (None, 1)                 201       
                                                                 
 batch_normalization_21 (Bat  (None, 1)                4         
 chNormalization)                                                
                                                                 
=================================================================
Total params: 2,326,015
Trainable params: 2,326,013
Non-trainable params: 2
_________________________________________________________________

1/1 [==============================] - ETA: 0s
1/1 [==============================] - 2s 2s/step
Model: "model_7"
_________________________________________________________________
 Layer (type)                Output Shape              Param #   
=================================================================
 input_8 (InputLayer)        [(None, 10, 15)]          0         
                                                                 
 dense_22 (Dense)            (None, 10, 100)           1600      
                                                                 
 bidirectional_14 (Bidirecti  (None, 10, 800)          1603200   
 onal)                                                           
                                                                 
 bidirectional_15 (Bidirecti  (None, 10, 200)          720800    
 onal)                                                           
                                                                 
 SEPCustomAttention (SEPAtte  (None, 200)              210       
 ntion)                                                          
                                                                 
 flatten_7 (Flatten)         (None, 200)               0         
                                                                 
 dense_23 (Dense)            (None, 1)                 201       
                                                                 
 batch_normalization_7 (Batc  (None, 1)                4         
 hNormalization)                                                 
                                                                 
=================================================================
Total params: 2,326,015
Trainable params: 2,326,013
Non-trainable params: 2
_________________________________________________________________
Epoch 2/5
11/11 - 7s - loss: 2.7973 - accuracy: 0.6816 
1/1 [==============================] - ETA: 0s
1/1 [==============================] - 1s 683ms/step
Model: "model_22"
_________________________________________________________________
 Layer (type)                Output Shape              Param #   
=================================================================
 input_23 (InputLayer)       [(None, 10, 15)]          0         
                                                                 
 dense_67 (Dense)            (None, 10, 100)           1600      
                                                                 
 bidirectional_44 (Bidirecti  (None, 10, 800)          1603200   
 onal)                                                           
                                                                 
 bidirectional_45 (Bidirecti  (None, 10, 200)          720800    
 onal)                                                           
                                                                 
 SEPCustomAttention (SEPAtte  (None, 200)              210       
 ntion)                                                          
                                                                 
 flatten_22 (Flatten)        (None, 200)               0         
                                                                 
 dense_68 (Dense)            (None, 1)                 201       
                                                                 
 batch_normalization_22 (Bat  (None, 1)                4         
 chNormalization)                                                
                                                                 
=================================================================
Total params: 2,326,015
Trainable params: 2,326,013
Non-trainable params: 2
_________________________________________________________________
Epoch 3/5
11/11 - 6s - loss: 4.1912 - accuracy: 0.6769 
1/1 [==============================] - ETA: 0s
1/1 [==============================] - 1s 671ms/step
Model: "model_23"
_________________________________________________________________
 Layer (type)                Output Shape              Param #   
=================================================================
 input_24 (InputLayer)       [(None, 10, 15)]          0         
                                                                 
 dense_70 (Dense)            (None, 10, 100)           1600      
                                                                 
 bidirectional_46 (Bidirecti  (None, 10, 800)          1603200   
 onal)                                                           
                                                                 
 bidirectional_47 (Bidirecti  (None, 10, 200)          720800    
 onal)                                                           
                                                                 
 SEPCustomAttention (SEPAtte  (None, 200)              210       
 ntion)                                                          
                                                                 
 flatten_23 (Flatten)        (None, 200)               0         
                                                                 
 dense_71 (Dense)            (None, 1)                 201       
                                                                 
 batch_normalization_23 (Bat  (None, 1)                4         
 chNormalization)                                                
                                                                 
=================================================================
Total params: 2,326,015
Trainable params: 2,326,013
Non-trainable params: 2
_________________________________________________________________
Epoch 3/5
11/11 - 22s - loss: 1.633 - accuracy: 0.9369 Epoch 4/5
11/11 - 6s - loss: 2.2493 - accuracy: 0.713 
1/1 [==============================] - ETA: 0s
1/1 [==============================] - 1s 1s/step

1/1 [==============================] - ETA: 0s
1/1 [==============================] - 1s 675ms/step
Model: "model_8"
_________________________________________________________________
 Layer (type)                Output Shape              Param #   
=================================================================
 input_9 (InputLayer)        [(None, 10, 15)]          0         
                                                                 
 dense_25 (Dense)            (None, 10, 100)           1600      
                                                                 
 bidirectional_16 (Bidirecti  (None, 10, 800)          1603200   
 onal)                                                           
                                                                 
 bidirectional_17 (Bidirecti  (None, 10, 200)          720800    
 onal)                                                           
                                                                 
 SEPCustomAttention (SEPAtte  (None, 200)              210       
 ntion)                                                          
                                                                 
 flatten_8 (Flatten)         (None, 200)               0         
                                                                 
 dense_26 (Dense)            (None, 1)                 201       
                                                                 
 batch_normalization_8 (Batc  (None, 1)                4         
 hNormalization)                                                 
                                                                 
=================================================================
Total params: 2,326,015
Trainable params: 2,326,013
Non-trainable params: 2
_________________________________________________________________
Model: "model_24"
_________________________________________________________________
 Layer (type)                Output Shape              Param #   
=================================================================
 input_25 (InputLayer)       [(None, 10, 15)]          0         
                                                                 
 dense_73 (Dense)            (None, 10, 100)           1600      
                                                                 
 bidirectional_48 (Bidirecti  (None, 10, 800)          1603200   
 onal)                                                           
                                                                 
 bidirectional_49 (Bidirecti  (None, 10, 200)          720800    
 onal)                                                           
                                                                 
 SEPCustomAttention (SEPAtte  (None, 200)              210       
 ntion)                                                          
                                                                 
 flatten_24 (Flatten)        (None, 200)               0         
                                                                 
 dense_74 (Dense)            (None, 1)                 201       
                                                                 
 batch_normalization_24 (Bat  (None, 1)                4         
 chNormalization)                                                
                                                                 
=================================================================
Total params: 2,326,015
Trainable params: 2,326,013
Non-trainable params: 2
_________________________________________________________________
Epoch 5/5
11/11 - 6s - loss: 2.3002 - accuracy: 0.7131 
…
Epoch 5/5
11/11 - 11s - loss: 1.766 - accuracy: 0.8998 
1/1 [==============================] - ETA: 0s
1/1 [==============================] - 1s 683ms/step


Running classification type: F_S  training for h = 60 hour ahead
Model: "model_20"
_________________________________________________________________
 Layer (type)                Output Shape              Param #   
=================================================================
 input_21 (InputLayer)       [(None, 10, 15)]          0         
                                                                 
 dense_61 (Dense)            (None, 10, 100)           1600      
                                                                 
 bidirectional_40 (Bidirecti  (None, 10, 800)          1603200   
 onal)                                                           
                                                                 
 bidirectional_41 (Bidirecti  (None, 10, 200)          720800    
 onal)                                                           
                                                                 
 SEPCustomAttention (SEPAtte  (None, 200)              210       
 ntion)                                                          
                                                                 
 flatten_20 (Flatten)        (None, 200)               0         
                                                                 
 dense_62 (Dense)            (None, 1)                 201       
                                                                 
 batch_normalization_20 (Bat  (None, 1)                4         
 chNormalization)                                                
                                                                 
=================================================================
Total params: 2,326,015
Trainable params: 2,326,013
Non-trainable params: 2
_________________________________________________________________
Epoch 3/5
11/11 - 38s - loss: 1.8644 - accuracy: 0.9146 
1/1 [==============================] - ETA: 0s
1/1 [==============================] - 1s 1s/step
Model: "model_18"
_________________________________________________________________
 Layer (type)                Output Shape              Param #   
=================================================================
 input_19 (InputLayer)       [(None, 10, 15)]          0         
                                                                 
 dense_55 (Dense)            (None, 10, 100)           1600      
                                                                 
 bidirectional_36 (Bidirecti  (None, 10, 800)          1603200   
 onal)                                                           
                                                                 
 bidirectional_37 (Bidirecti  (None, 10, 200)          720800    
 onal)                                                           
                                                                 
 SEPCustomAttention (SEPAtte  (None, 200)              210       
 ntion)                                                          
                                                                 
 flatten_18 (Flatten)        (None, 200)               0         
                                                                 
 dense_56 (Dense)            (None, 1)                 201       
                                                                 
 batch_normalization_18 (Bat  (None, 1)                4         
 chNormalization)                                                
                                                                 
=================================================================
Total params: 2,326,015
Trainable params: 2,326,013
Non-trainable params: 2
_________________________________________________________________
Epoch 1/5
11/11 - 12s - loss: 1.7217 - accuracy: 0.9103 
1/1 [==============================] - ETA: 0s
1/1 [==============================] - 1s 682ms/step
Model: "model_21"
_________________________________________________________________
 Layer (type)                Output Shape              Param #   
=================================================================
 input_22 (InputLayer)       [(None, 10, 15)]          0         
                                                                 
 dense_64 (Dense)            (None, 10, 100)           1600      
                                                                 
 bidirectional_42 (Bidirecti  (None, 10, 800)          1603200   
 onal)                                                           
                                                                 
 bidirectional_43 (Bidirecti  (None, 10, 200)          720800    
 onal)                                                           
                                                                 
 SEPCustomAttention (SEPAtte  (None, 200)              210       
 ntion)                                                          
                                                                 
 flatten_21 (Flatten)        (None, 200)               0         
                                                                 
 dense_65 (Dense)            (None, 1)                 201       
                                                                 
 batch_normalization_21 (Bat  (None, 1)                4         
 chNormalization)                                                
                                                                 
=================================================================
Total params: 2,326,015
Trainable params: 2,326,013
Non-trainable params: 2
_________________________________________________________________
Epoch 2/5
11/11 - 11s - loss: 1.2872 - accuracy: 0.9103 
1/1 [==============================] - ETA: 0s
1/1 [==============================] - 1s 681ms/step
Model: "model_22"
_________________________________________________________________
 Layer (type)                Output Shape              Param #   
=================================================================
 input_23 (InputLayer)       [(None, 10, 15)]          0         
                                                                 
 dense_67 (Dense)            (None, 10, 100)           1600      
                                                                 
 bidirectional_44 (Bidirecti  (None, 10, 800)          1603200   
 onal)                                                           
                                                                 
 bidirectional_45 (Bidirecti  (None, 10, 200)          720800    
 onal)                                                           
                                                                 
 SEPCustomAttention (SEPAtte  (None, 200)              210       
 ntion)                                                          
                                                                 
 flatten_22 (Flatten)        (None, 200)               0         
                                                                 
 dense_68 (Dense)            (None, 1)                 201       
                                                                 
 batch_normalization_22 (Bat  (None, 1)                4         
 chNormalization)                                                
                                                                 
=================================================================
Total params: 2,326,015
Trainable params: 2,326,013
Non-trainable params: 2
_________________________________________________________________
Epoch 3/5
11/11 - 12s - loss: 1.7115 - accuracy: 0.8983 
1/1 [==============================] - ETA: 0s
1/1 [==============================] - 1s 676ms/step
Model: "model_23"
_________________________________________________________________
 Layer (type)                Output Shape              Param #   
=================================================================
 input_24 (InputLayer)       [(None, 10, 15)]          0         
                                                                 
 dense_70 (Dense)            (None, 10, 100)           1600      
                                                                 
 bidirectional_46 (Bidirecti  (None, 10, 800)          1603200   
 onal)                                                           
                                                                 
 bidirectional_47 (Bidirecti  (None, 10, 200)          720800    
 onal)                                                           
                                                                 
 SEPCustomAttention (SEPAtte  (None, 200)              210       
 ntion)                                                          
                                                                 
 flatten_23 (Flatten)        (None, 200)               0         
                                                                 
 dense_71 (Dense)            (None, 1)                 201       
                                                                 
 batch_normalization_23 (Bat  (None, 1)                4         
 chNormalization)                                                
                                                                 
=================================================================
Total params: 2,326,015
Trainable params: 2,326,013
Non-trainable params: 2
_________________________________________________________________
Epoch 4/5
11/11 - 37s - loss: 2.8473 - accuracy: 0.8196 
1/1 [==============================] - ETA: 0s
1/1 [==============================] - 1s 1s/step
Model: "model_19"
_________________________________________________________________
 Layer (type)                Output Shape              Param #   
=================================================================
 input_20 (InputLayer)       [(None, 10, 15)]          0         
                                                                 
 dense_58 (Dense)            (None, 10, 100)           1600      
                                                                 
 bidirectional_38 (Bidirecti  (None, 10, 800)          1603200   
 onal)                                                           
                                                                 
 bidirectional_39 (Bidirecti  (None, 10, 200)          720800    
 onal)                                                           
                                                                 
 SEPCustomAttention (SEPAtte  (None, 200)              210       
 ntion)                                                          
                                                                 
 flatten_19 (Flatten)        (None, 200)               0         
                                                                 
 dense_59 (Dense)            (None, 1)                 201       
                                                                 
 batch_normalization_19 (Bat  (None, 1)                4         
 chNormalization)                                                
                                                                 
=================================================================
Total params: 2,326,015
Trainable params: 2,326,013
Non-trainable params: 2
_________________________________________________________________
Epoch 4/5
11/11 - 11s - loss: 1.5015 - accuracy: 0.9096 
1/1 [==============================] - ETA: 0s
1/1 [==============================] - 1s 681ms/step
Model: "model_24"
_________________________________________________________________
 Layer (type)                Output Shape              Param #   
=================================================================
 input_25 (InputLayer)       [(None, 10, 15)]          0         
                                                                 
 dense_73 (Dense)            (None, 10, 100)           1600      
                                                                 
 bidirectional_48 (Bidirecti  (None, 10, 800)          1603200   
 onal)                                                           
                                                                 
 bidirectional_49 (Bidirecti  (None, 10, 200)          720800    
 onal)                                                           
                                                                 
 SEPCustomAttention (SEPAtte  (None, 200)              210       
 ntion)                                                          
                                                                 
 flatten_24 (Flatten)        (None, 200)               0         
                                                                 
 dense_74 (Dense)            (None, 1)                 201       
                                                                 
 batch_normalization_24 (Bat  (None, 1)                4         
 chNormalization)                                                
                                                                 
=================================================================
Total params: 2,326,015
Trainable params: 2,326,013
Non-trainable params: 2
_________________________________________________________________
Epoch 5/5
11/11 - 11s - loss: 1.3496 - accuracy: 0.9103 
…
