…
****************** 
Using default parameters: classification type is: FC_S  time windows to train: [12, 24, 36, 48, 60, 72]
Starting hour: 12 ending hour: 72


Running classification type: FC_S  training for h = 12 hour ahead
Model: "model"
_________________________________________________________________
 Layer (type)                Output Shape              Param #   
=================================================================
 input_1 (InputLayer)        [(None, 10, 15)]          0         
                                                                 
 dense_1 (Dense)             (None, 10, 100)           1600      
                                                                 
 bidirectional (Bidirectiona  (None, 10, 800)          1603200   
 l)                                                              
                                                                 
 bidirectional_1 (Bidirectio  (None, 10, 200)          720800    
 nal)                                                            
                                                                 
 SEPCustomAttention (SEPAtte  (None, 200)              210       
 ntion)                                                          
                                                                 
 flatten (Flatten)           (None, 200)               0         
                                                                 
 dense_2 (Dense)             (None, 1)                 201       
                                                                 
 batch_normalization (BatchN  (None, 1)                4         
 ormalization)                                                   
                                                                 
=================================================================
Total params: 2,326,015
Trainable params: 2,326,013
Non-trainable params: 2
_________________________________________________________________
Epoch 1/5
11/11 - 9s - loss: 3.5942 - accuracy: 0.6587 
1/1 [==============================] - ETA: 0s
1/1 [==============================] - 1s 978ms/step
Model: "model_1"
_________________________________________________________________
 Layer (type)                Output Shape              Param #   
=================================================================
 input_2 (InputLayer)        [(None, 10, 15)]          0         
                                                                 
 dense_4 (Dense)             (None, 10, 100)           1600      
                                                                 
 bidirectional_2 (Bidirectio  (None, 10, 800)          1603200   
 nal)                                                            
                                                                 
 bidirectional_3 (Bidirectio  (None, 10, 200)          720800    
 nal)                                                            
                                                                 
 SEPCustomAttention (SEPAtte  (None, 200)              210       
 ntion)                                                          
                                                                 
 flatten_1 (Flatten)         (None, 200)               0         
                                                                 
 dense_5 (Dense)             (None, 1)                 201       
                                                                 
 batch_normalization_1 (Batc  (None, 1)                4         
 hNormalization)                                                 
                                                                 
=================================================================
Total params: 2,326,015
Trainable params: 2,326,013
Non-trainable params: 2
_________________________________________________________________
Epoch 2/5
11/11 - 8s - loss: 5.0224 - accuracy: 0.6667 
1/1 [==============================] - ETA: 0s
1/1 [==============================] - 1s 950ms/step
Model: "model_2"
_________________________________________________________________
 Layer (type)                Output Shape              Param #   
=================================================================
 input_3 (InputLayer)        [(None, 10, 15)]          0         
                                                                 
 dense_7 (Dense)             (None, 10, 100)           1600      
                                                                 
 bidirectional_4 (Bidirectio  (None, 10, 800)          1603200   
 nal)                                                            
                                                                 
 bidirectional_5 (Bidirectio  (None, 10, 200)          720800    
 nal)                                                            
                                                                 
 SEPCustomAttention (SEPAtte  (None, 200)              210       
 ntion)                                                          
                                                                 
 flatten_2 (Flatten)         (None, 200)               0         
                                                                 
 dense_8 (Dense)             (None, 1)                 201       
                                                                 
 batch_normalization_2 (Batc  (None, 1)                4         
 hNormalization)                                                 
                                                                 
=================================================================
Total params: 2,326,015
Trainable params: 2,326,013
Non-trainable params: 2
_________________________________________________________________
Epoch 3/5
11/11 - 8s - loss: 3.2289 - accuracy: 0.6404 
1/1 [==============================] - ETA: 0s
1/1 [==============================] - 1s 923ms/step
Model: "model_3"
_________________________________________________________________
 Layer (type)                Output Shape              Param #   
=================================================================
 input_4 (InputLayer)        [(None, 10, 15)]          0         
                                                                 
 dense_10 (Dense)            (None, 10, 100)           1600      
                                                                 
 bidirectional_6 (Bidirectio  (None, 10, 800)          1603200   
 nal)                                                            
                                                                 
 bidirectional_7 (Bidirectio  (None, 10, 200)          720800    
 nal)                                                            
                                                                 
 SEPCustomAttention (SEPAtte  (None, 200)              210       
 ntion)                                                          
                                                                 
 flatten_3 (Flatten)         (None, 200)               0         
                                                                 
 dense_11 (Dense)            (None, 1)                 201       
                                                                 
 batch_normalization_3 (Batc  (None, 1)                4         
 hNormalization)                                                 
                                                                 
=================================================================
Total params: 2,326,015
Trainable params: 2,326,013
Non-trainable params: 2
_________________________________________________________________
Epoch 4/5
11/11 - 8s - loss: 4.8239 - accuracy: 0.6825 
1/1 [==============================] - ETA: 0s
1/1 [==============================] - 1s 1s/step
Model: "model_4"
_________________________________________________________________
 Layer (type)                Output Shape              Param #   
=================================================================
 input_5 (InputLayer)        [(None, 10, 15)]          0         
                                                                 
 dense_13 (Dense)            (None, 10, 100)           1600      
                                                                 
 bidirectional_8 (Bidirectio  (None, 10, 800)          1603200   
 nal)                                                            
                                                                 
 bidirectional_9 (Bidirectio  (None, 10, 200)          720800    
 nal)                                                            
                                                                 
 SEPCustomAttention (SEPAtte  (None, 200)              210       
 ntion)                                                          
                                                                 
 flatten_4 (Flatten)         (None, 200)               0         
                                                                 
 dense_14 (Dense)            (None, 1)                 201       
                                                                 
 batch_normalization_4 (Batc  (None, 1)                4         
 hNormalization)                                                 
                                                                 
=================================================================
Total params: 2,326,015
Trainable params: 2,326,013
Non-trainable params: 2
_________________________________________________________________
Epoch 5/5
11/11 - 8s - loss: 2.6429 - accuracy: 0.6924 
…
